…
isplayName":"Evgeny Prokhorenko","userId":"12915698465445876238"}},"outputId":"993f6fad-ed54-4c76-a686-7ed9c2d24921"},"execution_count":14,"outputs":[{"output_type":"stream","name":"stdout","text":["Model: \"model\"\n","_________________________________________________________________\n"," Layer (type)                Output Shape              Param #   \n","=================================================================\n"," input_1 (InputLayer)        [(None, 64, 64, 3)]       0         \n","                                                                 \n"," cast_to_float32 (CastToFloa  (None, 64, 64, 3)        0         \n"," t32)                                                            \n","                                                                 \n"," normalization (Normalizatio  (None, 64, 64, 3)        7         \n"," n)                                                              \n","                                                                 \n"," conv2d (Conv2D)             (None, 62, 62, 32)        896       \n","                                                                 \n"," conv2d_1 (Conv2D)           (None, 60, 60, 64)        18496     \n","                                                                 \n"," max_pooling2d (MaxPooling2D  (None, 30, 30, 64)       0         \n"," )                                                               \n","                                                                 \n"," dropout (Dropout)           (None, 30, 30, 64)        0         \n","                                                                 \n"," flatten (Flatten)           (None, 57600)             0         \n","                                                                 \n"," dropout_1 (Dropout)         (None, 57600)             0         \n","                                                                 \n"," dense (Dense)               (None, 64)                3686464   \n","                                                                 \n"," classification_head_1 (Soft  (None, 64)               0         \n"," max)                                                            \n","                                                                 \n","=================================================================\n","Total params: 3,705,863\n","Trainable params: 3,705,856\n","Non-trainable params: 7\n","_________________________________________________________________\n"]}]},{"cell_type":"c
…
